# Ultralytics YOLO 🚀, AGPL-3.0 license
# YOLOv8 object detection model with P3-P5 outputs. For Usage examples see https://docs.ultralytics.com/tasks/detect

# Parameters
nc: 6 # number of classes
scales: # model compound scaling constants, i.e. 'model=yolov8n.yaml' will call yolov8.yaml with scale 'n'
  # [depth, width, max_channels]
  n: [ 0.33, 0.25, 1024 ] # YOLOv8n summary: 225 layers,  3157200 parameters,  3157184 gradients,   8.9 GFLOPs
#  s: [ 0.33, 0.50, 1024 ] # YOLOv8s summary: 225 layers, 11166560 parameters, 11166544 gradients,  28.8 GFLOPs
#  m: [ 0.67, 0.75, 768 ] # YOLOv8m summary: 295 layers, 25902640 parameters, 25902624 gradients,  79.3 GFLOPs
#  l: [ 1.00, 1.00, 512 ] # YOLOv8l summary: 365 layers, 43691520 parameters, 43691504 gradients, 165.7 GFLOPs
#  x: [ 1.00, 1.25, 512 ] # YOLOv8x summary: 365 layers, 68229648 parameters, 68229632 gradients, 258.5 GFLOPs

# YOLOv8.0n backbone
backbone:
  # [from, repeats, module, args]
  ######### TransformerBlock One #############
  # stream one
  - [ -1, 1, InitConv, [ 64, 3, 2 ] ] # 0-P1/2
  - [ -1, 1, Conv, [ 128, 3, 2 ] ] # 1-P2/4
  - [ -1, 3, C2f, [ 128, True ] ] # 2-P2/4
  # stream two
  - [ -4, 1, InitConv, [ 64, 3, 2 ] ] # 3-P1/2
  - [ -1, 1, Conv, [ 128, 3, 2 ] ] # 4-P2/4
  - [ -1, 3, C2f, [ 128, True ] ] # 5-P2/4
  # transformer fusion
  - [ [ 2, 5 ], 1, GPT, [ 128 ] ] # 6-P2/4
  - [ [ 2, 6 ], 1, Add2, [ 128, 0 ] ] # 7-P2/4 stream one:x+trans[0]
  - [ [ 5, 6 ], 1, Add2, [ 128, 1 ] ]  # 8-P2/4 stream two:x+trans[1]

  ######### TransformerBlock Two #############
  # stream one
  - [ 7, 1, Conv, [ 256, 3, 2 ] ] # 9-P3/8
  - [ -1, 6, C2f, [ 256, True ] ] # 10-P3/8
  # stream two
  - [ 8, 1, Conv, [ 256, 3, 2 ] ] # 11-P3/8
  - [ -1, 6, C2f, [ 256, True ] ] # 13-P3/8
  # transformer fusion
  - [ [ 10, 12 ], 1, GPT, [ 256 ] ]   # 13-P3/8
  - [ [ 10, 13 ], 1, Add2, [ 256, 0 ] ]    # 14-P3/8 stream one x+trans[0]
  - [ [ 12, 13 ], 1, Add2, [ 256, 1 ] ]   # 15-P3/8 stream two x+trans[1]


  ######### TransformerBlock Three #############
  # stream one
  - [ 14, 1, Conv, [ 512, 3, 2 ] ] # 16-P4/16
  - [ -1, 6, C2f, [ 512, True ] ] # 17-P4/16
  # stream two
  - [ 15, 1, Conv, [ 512, 3, 2 ] ] # 18-P4/16
  - [ -1, 6, C2f, [ 512, True ] ] # 19-P4/16
  # transformer fusion
  - [ [ 17, 19 ] , 1, GPT, [ 512 ] ] # 20-P3/8
  - [ [ 17, 20 ], 1, Add2, [ 512, 0 ] ]    # 21-P3/8 stream one x+trans[0]
  - [ [ 19, 20 ], 1, Add2, [ 512, 1 ] ]    # 22-P3/8 stream two x+trans[1]

  ######### TransformerBlock Four #############
  # stream one
  - [ 21, 1, Conv, [ 1024, 3, 2 ] ] # 23-P5/32
  - [ -1, 3, C2f, [ 1024, True ] ] # 24-P5/32
  - [ -1, 1, SPPF, [ 1024, 5 ] ] # 25-P5/32
  # stream two
  - [ 22, 1, Conv, [ 1024, 3, 2 ] ] # 26-P5/32
  - [ -1, 3, C2f, [ 1024, True ] ] # 27-P5/32
  - [ -1, 1, SPPF, [ 1024, 5 ] ] # 28-P5/32
  # transformer fusion
  - [ [ 25,28 ], 1, GPT, [ 1024 ] ]   # 29-P5/32
  - [ [ 25,29 ], 1, Add2, [ 1024,0 ] ]   # 30-P5/32 stream one x+trans[0]
  - [ [ 28,29 ], 1, Add2, [ 1024,1 ] ]   # 31-P5/32 stream two x+trans[1]


  ######### Add Block #############
  - [ [ 14,15 ], 1, Add, [ 1 ] ]  # 32-P3/8 fusion backbone P3
  - [ [ 21,22 ], 1, Add, [ 1 ] ]  # 33-P4/16 fusion backbone P4
  - [ [ 30,31 ], 1, Add, [ 1 ] ]  # 34-P5/32 fusion backbone P5


# YOLOv8.0n head
head:
  - [ -1, 1, nn.Upsample, [ None, 2, "nearest" ] ] # 35
  - [ [ -1, 33 ], 1, Concat, [ 1 ] ] # cat backbone P4
  - [ -1, 3, C2f, [ 512 ] ] # 37

  - [ -1, 1, nn.Upsample, [ None, 2, "nearest" ] ] # 38
  - [ [ -1, 32 ], 1, Concat, [ 1 ] ] # cat backbone P3
  - [ -1, 3, C2f, [ 256 ] ] # 40 (P3/8-small)

  - [ -1, 1, Conv, [ 256, 3, 2 ] ] # 41
  - [ [ -1, 37 ], 1, Concat, [ 1 ] ] # cat head P4
  - [ -1, 3, C2f, [ 512 ] ] # 43 (P4/16-medium)

  - [ -1, 1, Conv, [ 512, 3, 2 ] ] # 44
  - [ [ -1, 34 ], 1, Concat, [ 1 ] ] # cat head P5
  - [ -1, 3, C2f, [ 1024 ] ] # 46 (P5/32-large)

  - [ [ 40, 43, 46 ], 1, Detect, [ nc ] ] # Detect(P3, P4, P5)
